lite/examples/text_classification/android/app/src/main/assets/profanity_classifier.tflite (tflite, 643444 bytes, 5 tensors)

sequential_1/dense_2/MatMul/ReadVariableOp/transpose f4 [16, 16]
000000 37 dd 38 bf 57 55 33 3f 88 9c eb 3f 67 ff 13 bf
       -0.7221255 0.70052093 1.8407145 -0.5781159
000010 d6 79 6b bf 01 89 a0 bf 84 c1 07 bf ff 4a d5 be
       -0.9198278 -1.254181 -0.53029656 -0.4165878
000020 15 62 1f bf b6 f4 c6 bf 77 dd 80 3f 27 18 b1 3f
       -0.62259036 -1.554343 1.0067586 1.3835496
000030 88 2b 53 3f 42 f0 0d bf 7c d3 33 bf 55 8c 56 bf
       0.824883 -0.5544473 -0.70244575 -0.8380788
000040 a9 0d 4e bf 71 c4 56 3f 10 66 d3 3f 80 97 b2 bf
       -0.80489594 0.83893496 1.6515522 -1.3952484
000050 de 50 5e bf d5 00 7c bf f5 5e 4a bf 3f aa 0a be
       -0.86842144 -0.9843877 -0.7905114 -0.13541506
000060 53 72 8e bf 2a 17 e0 bf 34 be bd 3f b7 bb 41 3f
       -1.1128639 -1.7507069 1.482367 0.75677055
000070 13 7a 54 3f 16 aa 1d bf 37 ac 04 bf 5a 94 4c bf
       0.8299877 -0.61587656 -0.5182528 -0.79913867
000080 d0 ec f1 be 22 76 39 3f 06 4a db 3f c7 e9 22 bf
       -0.47250986 0.7244588 1.7131965 -0.63637966
000090 97 0c 82 bf 0c 78 2f bf fa ca 95 be 0d 42 19 bf
       -1.0160092 -0.6854255 -0.2925642 -0.5986641
0000a0 26 2c 7e bf 9e b6 f2 bf 14 f1 ad 3f ea 33 ce 3f
       -0.99286115 -1.896198 1.3589196 1.6109593
0000b0 50 b7 a9 3e bb a4 34 bf 11 01 07 bf 75 84 41 bf
       0.3314767 -0.7056386 -0.52736 -0.7559274
0000c0 eb 10 21 bf 57 99 31 3f 43 9f 1c 40 7e 38 c7 bf
       -0.6291644 0.69374603 2.4472206 -1.5564115
0000d0 d3 ab 8b bf 11 2c 9c bf ff 79 4b bf 21 c7 fa 3c
       -1.0911812 -1.2200948 -0.79483026 0.03061253
0000e0 c0 ad 96 bf 4d e0 15 c0 56 0c e3 3f f1 f0 9a 3f
       -1.1771774 -2.3418152 1.773814 1.210478
0000f0 7b 52 34 3f 05 1c f9 bd 49 82 04 bf 0b 13 f2 be
       0.70438355 -0.121635474 -0.517613 -0.47280154
000100 cd 8d 58 3f 1e f2 02 be 32 78 ce bf ea 1d c6 3f
       0.8459137 -0.12787673 -1.6130431 1.5477879
000110 b4 c5 7b 3f ba 40 f3 3f cd db 3e 3e 8e ba 9c 3e
       0.98348546 1.9004128 0.18638535 0.3061108
000120 1d c2 d3 3f 08 51 e3 3f 03 1b e9 bf 03 28 55 bf
       1.6543614 1.7759104 -1.8211368 -0.8326418
000130 02 29 f1 bd e4 fb c3 3e a9 48 9d 3f f5 cf 89 3f
       -0.117754 0.38278115 1.2287799 1.0766588
000140 f6 54 3b bd fc cf 90 ba 33 a7 4c 3e b0 d8 44 be
       -0.045735322 -0.0011048312 0.19985656 -0.19223285
000150 15 00 65 be 32 2c a5 bd c8 d7 24 3e cf f5 be bd
       -0.22363313 -0.0806507 0.16097939 -0.09324228
000160 79 99 82 3c 32 66 ea 3d 35 05 12 3e 0f 18 8b be
       0.015942322 0.114452735 0.14259799 -0.27166793
000170 35 fa 6c 3e b3 b6 f5 bd 97 65 ab 3e d3 b0 b7 3e
       0.23142321 -0.11997738 0.33475944 0.35877094
000180 b6 0e 47 bf df fe 11 3f dc 9c da 3f 09 c4 c8 bf
       -0.7775682 0.5702953 1.707912 -1.5684825
000190 2a 28 49 bf 3d 39 b3 bf ea ea 65 bf 11 d6 35 be
       -0.7857691 -1.4001843 -0.89811575 -0.17757441
0001a0 45 77 56 bf 39 0a cb bf 65 ec c9 3f eb 41 cd 3f
       -0.8377574 -1.5862495 1.5775267 1.6035742
0001b0 38 2c 18 3f 20 6b a1 be 1a 37 bf be 4f 3e 24 be
       0.5944247 -0.31527042 -0.37346727 -0.16039394
0001c0 48 74 2f 3f ac 32 07 bf 3f c0 ea bf 43 ec c5 3f
       0.68536806 -0.52811694 -1.8339919 1.5462726
0001d0 d3 42 90 3f 27 03 b6 3f c6 f0 04 3f 28 10 74 3e
       1.1270393 1.4219712 0.5192989 0.23834288
0001e0 16 cd ca 3f 15 d6 b4 3f 39 e9 5c bf 9d d2 78 bf
       1.5843837 1.4127833 -0.8629337 -0.9719637
0001f0 73 91 0d bf c2 cd 82 3f ef c1 2e 3f d9 1b f5 3e
       -0.5530006 1.0219042 0.6826467 0.4787281
000200 27 03 4a bf 7f 29 51 3f 8d 63 d2 3f eb 99 80 bf
       -0.7891106 0.81703943 1.643663 -1.0046972
000210 9a 49 6e bf 3c a3 89 bf 97 9c 15 be 5c 24 53 be
       -0.9308106 -1.075294 -0.14610516 -0.20619339
000220 61 fb ac bf 28 16 b7 bf d0 a3 69 3f de 5a 85 3f
       -1.3514215 -1.4303637 0.91265583 1.0418355
000230 33 36 2e 3f 30 ec 3c bf f5 d4 d3 be 1f 39 34 bf
       0.6805145 -0.73797894 -0.4137341 -0.7039966
000240 f0 37 70 bd d0 03 b6 be ca c8 69 bf 44 27 c3 3f
       -0.058647096 -0.35549784 -0.91322005 1.5246358
000250 b1 c7 5e 3f e3 42 0a 40 75 d7 e4 3e 45 49 73 3f
       0.87023455 2.1603324 0.4469563 0.95033675
000260 a3 7a 98 3f 06 12 bb 3f d3 dd 40 bf 0b 6f 0f bf
       1.1912426 1.4614875 -0.75338477 -0.56028813
000270 ff 13 79 bd 32 37 48 3f ab 93 4d 3f be fa 17 3f
       -0.060810085 0.7820922 0.8030345 0.5936698
000280 dd 54 0d 3f 4b fd 35 bf f6 aa c6 bf ce af a3 3f
       0.55207616 -0.7108962 -1.5520923 1.2788026
000290 c4 43 32 3f 5f ac c7 3f fb 3c 2d 3e 46 28 7b 3f
       0.6963465 1.5599478 0.16917793 0.9810833
0002a0 6b 4f 42 3f 6d e5 f3 3f 68 f0 9c bf 3e 9c a3 bf
       0.7590243 1.905439 -1.2260866 -1.2782056
0002b0 e7 67 d8 be 77 66 6f 3f 98 65 03 3f de 44 76 3f
       -0.4226677 0.93515724 0.51326895 0.96198833
0002c0 b9 05 13 3f 41 dc a7 3e 64 f9 9b 3e 97 65 ef be
       0.5743061 0.32785228 0.30463707 -0.46757194
0002d0 61 2e 19 3e 2b 5a d7 be 32 d8 46 be c3 3a 1e bf
       0.14959098 -0.4206098 -0.1941841 -0.61808413
0002e0 85 b3 cf bd bb dd 09 be 4c 31 8f 3e 50 5c af bc
       -0.101416625 -0.1346349 0.27967298 -0.021406323
0002f0 73 17 5a be 09 78 0c bf 3d 98 26 bf 4d 48 d8 be
       -0.21298008 -0.5487066 -0.6507605 -0.4224266
000300 19 73 24 3e 4f e7 d3 be ec a6 a1 bf 57 11 a1 3f
       0.16059531 -0.41387412 -1.2629066 1.2583417
000310 3b 6b 61 3f b8 74 ed 3f fd 16 2c 3f af 1d 11 3f
       0.88054246 1.8551245 0.6722258 0.5668592
000320 04 36 87 3f 45 59 0f 40 d5 75 b5 bf 51 38 b0 bf
       1.0563359 2.2398236 -1.4176584 -1.3767186
000330 92 0c 0f bf 21 ce 8a 3f 95 9a 99 3f 4a 53 54 3f
       -0.55878556 1.0844156 1.20003 0.8293959
000340 1a eb ab be fa 4e de 3e 4d a8 e7 3f d8 05 ba bf
       -0.33577806 0.4341963 1.8098236 -1.4533033
000350 5e ba 92 bf 97 59 a1 bf 5e 86 43 bf 3b 13 99 be
       -1.1463125 -1.2605466 -0.76376903 -0.29897484
000360 25 70 9b bf a9 13 e7 bf fc c1 a5 3f 7a c6 81 3f
       -1.2143599 -1.8052875 1.2949824 1.0138695
000370 26 3c 0d 3f e8 5c 51 bf 07 41 3a be a4 2a 28 bf
       0.55169904 -0.8178239 -0.18188868 -0.65690064
000380 97 f8 1e bf fc 6b 2b 3f a2 f3 e8 3f bf ca 82 bf
       -0.6209807 0.66961646 1.8199351 -1.0218123
000390 92 e1 64 bf d4 b8 7f bf 1c 83 61 bf 88 26 21 bf
       -0.89406693 -0.998914 -0.8809068 -0.6294942
0003a0 2f 87 94 bf bc d5 c1 bf 71 17 ba 3f b4 d0 c6 3f
       -1.1603755 -1.5143352 1.4538404 1.5532441
0003b0 77 41 3b 3f 85 9f e1 be 55 f6 b5 be 94 de be be
       0.73146766 -0.44067016 -0.355395 -0.3727919
0003c0 b1 24 91 3e 8b 61 99 be 94 d7 dc bf bc e9 f8 3f
       0.28348306 -0.29957232 -1.7253289 1.944633
0003d0 29 08 56 3f 3e e5 f0 3f 65 8b 28 3e 8c 44 85 3f
       0.836062 1.8819959 0.16459425 1.0411544
0003e0 30 e5 d0 3f 44 cb 00 40 0c f7 ba bf c6 f1 52 bf
       1.6319942 2.0124063 -1.4606643 -0.82400167
0003f0 4a b1 dd be 17 b1 2d 3f 6f 06 8d 3f 1a 90 93 3f
       -0.43299323 0.6784834 1.1017588 1.1528351

sequential_1/dense_2/MatMul_bias f4 [16]
000000 50 88 0e bc 93 fa cc bc 0f 62 04 3d cd d8 88 bc
       -0.008699492 -0.025021827 0.03232008 -0.016704941
000010 3d fb 92 3d 12 37 ef bc 7a 6a 9f bc 02 d3 cd 3d
       0.07176826 -0.029201064 -0.019459952 0.10050012
000020 a6 50 bf ba 97 c3 1f bb c7 72 86 3d 7e cd f0 3b
       -0.0014596179 -0.0024378055 0.06564861 0.0073487153
000030 90 1a 8b 3d f5 35 57 3c 84 e9 24 bb cc dc 0c 3d
       0.06792176 0.013135423 -0.00251636 0.034390256

sequential_1/dense_3/MatMul/ReadVariableOp/transpose f4 [2, 16]
000000 68 4d cb 3f ee 53 d3 3f cd 9d c5 3f d0 6d bd 3f
       1.5882998 1.6509988 1.5438782 1.4799137
000010 91 f2 b1 bf 7b 40 0b 3f 50 63 c6 3f a3 45 dd bf
       -1.390215 0.54395264 1.5499058 -1.7286876
000020 82 ac dd 3f b7 6d d7 bf 9e a8 e3 bf a8 e3 72 bf
       1.731827 -1.6830357 -1.7785833 -0.94878626
000030 b9 1c d0 bf 35 e0 b3 3f b2 82 cf 3f 0e dd 46 bf
       -1.6258765 1.4052798 1.621176 -0.7768105
000040 d4 a2 c2 bf d0 da 9d bf 01 61 aa bf c2 ec 85 bf
       -1.5205941 -1.2332401 -1.3310853 -1.0462878
000050 18 41 84 3f e3 a5 1d be a3 03 a0 bf 2a 77 9e 3f
       1.0332365 -0.15395312 -1.250111 1.2380116
000060 6c 5f 94 bf 97 a8 b5 3f 0a 7a c4 3f 26 47 58 3f
       -1.159162 1.4192075 1.5349743 0.84483564
000070 2f 48 98 3f 43 39 9b bf 0f c6 7d bf 1b fa d9 3f
       1.1897029 -1.212685 -0.9913034 1.7029451

sequential_1/dense_3/MatMul_bias f4 [2]
000000 1d d2 3e bd 24 d2 3e 3d
       -0.0465871 0.046587124

sequential_1/embedding_1/embedding_lookup/749560 f4 [10003, 16]
000000 68 90 42 bd f6 4b 33 3d a5 bd 77 3b 29 4c 44 3c
       -0.047500998 0.043773614 0.0037802246 0.011981049
000010 f7 86 bb bc 76 d0 17 3c 48 50 24 bd eb 1c 42 3d
       -0.022891505 0.00926601 -0.040115625 0.04739086
000020 f2 c5 fb 3b 9e a6 46 ba 56 3a 75 3c bf e0 a4 3c
       0.007683509 -0.00075779285 0.014967522 0.020126699
000030 86 e6 51 3d 36 45 16 3d 25 1d 1a 3d ab 0e d1 bc
       0.051245235 0.0366871 0.03762545 -0.02551969
000040 43 2c 1b 3d e8 5f c9 3b b3 6c 8a bc bb df 2d 3c
       0.03788401 0.006145466 -0.016897535 0.0106124235
000050 3d dc 40 3c 97 d8 b9 3c 7e 75 0e 3d 72 56 38 3d
       0.011771259 0.022686286 0.034780018 0.045004316
000060 df 98 8d 3c c3 7a 2c 3d f6 da b1 bb a4 dd 63 bd
       0.017284809 0.042109262 -0.0054277135 -0.055631295
000070 e9 f0 97 3c 7b 5b 44 bd 6d 50 dd bc 85 b8 19 3d
       0.018547492 -0.047938805 -0.027015889 0.037529487
000080 2d ff e6 3d bf 1e 35 bd 3e 10 cf bd 28 b5 8c bd
       0.1127914 -0.044218775 -0.1011052 -0.0687049
000090 79 3d 6a 3c 6a 0d 96 bd dc 40 7b 3c 6c 51 14 be
       0.014296883 -0.07326777 0.015335288 -0.14484185
0000a0 39 38 70 bc 17 32 04 3c dc 93 6b bd 28 08 91 bd
       -0.014661842 0.008068583 -0.057514057 -0.07081634
0000b0 d6 74 55 bd 67 64 32 bd f4 5d 18 be 22 cf b0 bc
       -0.052113377 -0.043552782 -0.1487959 -0.021583144
0000c0 df b4 3e 3e 40 18 47 bc fb de 02 bd d6 30 3f bd
       0.18623684 -0.012151778 -0.031950932 -0.046677433
0000d0 ef 7d b1 3c 93 38 91 bd 96 27 9a 3d 7b e2 2f be
       0.021666495 -0.07090869 0.07527082 -0.17176239
0000e0 15 fd d2 3c b2 2d 44 3b 40 17 8d bd 30 3b b7 bd
       0.025755445 0.0029934463 -0.068892 -0.08946836
0000f0 21 92 77 bd 9e 21 f1 bd 21 e1 28 be 66 b5 31 bd
       -0.060442094 -0.1177399 -0.1649213 -0.043385886
000100 83 40 82 3e 93 27 93 be c5 e9 9b be 54 2b 6e 3e
       0.25439844 -0.2874113 -0.3045179 0.23258716
000110 65 26 90 3e 76 5d 55 3e 28 b3 5b 3e e3 62 6a 3e
       0.28154293 0.20836434 0.21455061 0.22889285
000120 b6 21 16 3e 8b 70 87 3e c1 36 fb bd 94 a8 86 be
       0.14661297 0.2645305 -0.12266303 -0.2630049
000130 5d c0 a1 be 95 c9 31 3e a8 91 66 3e 9f df 2d 3e
       -0.31592074 0.17362054 0.22516501 0.16979836
000140 c6 5c 8d ba f4 53 95 3c 31 59 4a 3d b4 20 17 be
       -0.0010785095 0.018228509 0.049401466 -0.14758569
000150 de af 91 bd 68 7b 51 be b5 be c0 3c 2b c3 48 be
       -0.07113622 -0.20457232 0.023528436 -0.196057
000160 eb 91 6a bd b3 04 77 bd 3b f5 57 3d 4d 82 c9 bc
       -0.057268064 -0.060307216 0.052724104 -0.024598265
000170 87 45 ad bc ff db 4f be 60 29 51 be 65 83 2e be
       -0.021151317 -0.20298766 -0.2042594 -0.1704231
000180 05 60 42 3e cd 9c 59 be 18 24 34 be 7b 83 bf 3d
       0.18981941 -0.21251221 -0.17591894 0.0935125
000190 7e 23 dd 3d 64 3a d1 3d 57 6e 06 3e df c0 a6 3d
       0.10797785 0.10216215 0.13128029 0.08142256
0001a0 85 8f ed 3d d4 05 38 3e e3 b4 1f be 7e ba 6c be
       0.1159964 0.17970973 -0.15596347 -0.23118016
0001b0 f4 1a 1b be a6 b0 08 3e fa 2b 96 3c e9 b1 bd 3d
       -0.15147 0.13348636 0.018331517 0.09262449
0001c0 57 da 26 3d d0 8c 74 bd 39 d3 d2 bd 84 0d ff bc
       0.04073557 -0.0597046 -0.10294194 -0.031134374
0001d0 0f b7 db bc dd 36 e8 bd ca 30 b9 3d 14 de 98 bd
       -0.026820688 -0.11338589 0.09042509 -0.07464233
0001e0 b4 de 0b bc 09 34 8e 3d e3 8a 85 bd ff 81 02 be
       -0.008536983 0.06943519 -0.06520631 -0.12744902
0001f0 52 68 0c be 9e eb 70 3c 23 3c 87 bd 35 a3 64 bd
       -0.1371167 0.014704613 -0.06603267 -0.05581971
000200 b8 1f ce 3d c9 96 1d bd 5b fa 94 bd 83 de 04 bd
       0.100646436 -0.038473878 -0.07274314 -0.032438766
000210 6b 25 b1 3a d5 35 be bd b2 df 7a 3d 34 ed ee bd
       0.001351518 -0.092876114 0.06124849 -0.11666337
000220 7e ac 92 3d 59 dd 1d bb da 3e 6d bc 04 d1 d7 bd
       0.071618065 -0.0024088232 -0.014480317 -0.105379134
000230 2d 9a f8 bd 4c 59 3a bd ab 75 60 bd 8f 0a 9c 3c
       -0.12138782 -0.045495316 -0.054799717 0.019048003
000240 50 92 a6 3d 27 3c db 3c 47 a9 54 3d ab 12 81 bd
       0.08133376 0.026762081 0.051919248 -0.06302389
000250 2c b7 25 bd e5 98 15 be 92 a1 e3 bc c6 8b 31 be
       -0.04045789 -0.14609106 -0.027787004 -0.17338476
000260 d0 16 4c bd a9 57 6d bd 2b 73 c9 3c 8d 4c 20 bd
       -0.049826443 -0.057944927 0.02459105 -0.039135505
000270 4a c2 31 bd 3f 18 d1 bd a1 8a 1d be 32 b1 06 be
       -0.04339818 -0.10209703 -0.15384914 -0.13153532
000280 82 6c 06 3e 0c 6e f2 bd 0f 0a 20 be 1e 6f 2a 3a
       0.1312733 -0.11837396 -0.15628837 0.0006501543
000290 0f 60 55 3d 45 75 eb bc 2c 5c 53 3c 8d 06 95 bc
       0.05209356 -0.028742442 0.012900393 -0.0181916
0002a0 5e 64 91 3d d0 ff c2 3d c8 67 a6 bd de 33 04 be
       0.07099222 0.095214486 -0.081252635 -0.12910411
0002b0 07 72 a6 bd fa 78 1b bd 69 b9 d1 bd a7 93 9c 3c
       -0.08127218 -0.03795717 -0.10240442 0.019113375
0002c0 3d 08 4f 3d 9d 52 25 3d db d5 d9 bc 57 10 d4 bd
       0.050544966 0.04036199 -0.026591232 -0.10354679
0002d0 44 ca 64 bd 0e f0 31 be b9 c8 f7 3c e2 68 2d be
       -0.055856958 -0.1737673 0.03024708 -0.16934541
0002e0 aa c5 83 bd f3 bc 0f bd 4e 17 1c 3d 16 0a 14 3d
       -0.06434186 -0.035092305 0.038108163 0.03614243
0002f0 a7 3f 91 3c 00 7d a4 bd 2c 67 08 be d9 fc 16 be
       0.017730547 -0.08031654 -0.13320607 -0.14744891
000300 60 de b2 bb a6 9b 6e 3d 96 4a 33 3d 44 7b 1e be
       -0.005458638 0.058253907 0.043772303 -0.1547671
000310 ba 05 24 bd 6e c5 1e be ba 6a c1 3c 2b fd 06 be
       -0.040044524 -0.15505001 0.023610462 -0.13182513
000320 e7 7d ac 3c 47 f0 c1 bd da 7b 52 bd bd 81 d2 3b
       0.021056129 -0.094696574 -0.051387645 0.0064241574
000330 9a c0 5f 3c 59 65 bd bd ef 92 23 be 6f 42 b6 bd
       0.01365676 -0.09247846 -0.1597402 -0.0889939
000340 42 73 d0 3d b1 91 eb 3b a4 0a a4 bc 2c 50 a6 bd
       0.10178234 0.0071889986 -0.020024605 -0.0812076
000350 20 67 04 3d 5c 21 d8 bd 0c 96 0f 3d af b2 21 be
       0.03232491 -0.10553238 0.035055205 -0.15790819
000360 52 17 99 bc 05 f6 c0 3c a3 99 92 bd 8a d2 cb bd
       -0.018687878 0.023554811 -0.0715821 -0.099522665
000370 c8 6e da bd 22 91 5a bd 92 2a a9 bd 3c 0b 00 bd
       -0.10665661 -0.053361066 -0.08260073 -0.031260714
000380 2e cb 16 3c 9d 5f b0 3d c2 bb f1 3d dd 00 5e be
       0.009203715 0.08611987 0.1180339 -0.21680017
000390 c5 a7 44 be be 6d 7b be 01 a1 52 bd 0e 47 63 be
       -0.19204624 -0.24553582 -0.051423077 -0.22195074
0003a0 71 b1 47 be c3 28 2e be 59 29 4d 3d 89 89 88 3d
       -0.19501282 -0.17007737 0.05008826 0.06666858
0003b0 22 cc 1b 3d d9 42 77 be ce 11 6c be b7 8e 47 be
       0.038036473 -0.24146594 -0.23053667 -0.19488035
0003c0 56 4e 45 3e cd 16 f1 bd c6 1f ce bd 27 2c b5 bc
       0.19268164 -0.11771927 -0.10064654 -0.02211578
0003d0 30 d6 c7 3d f9 3e 75 3c eb 09 e3 3d fc 41 d9 bd
       0.0975765 0.014968627 0.11085876 -0.10608289
0003e0 0e 66 45 3d 19 7d 15 3d 12 4c a0 bd 14 aa f4 bd
       0.04819303 0.036496256 -0.07827009 -0.11946502
0003f0 ea 16 1d be 77 ad bd 3b b4 88 b5 bc 8a b2 8e 3b
       -0.15340772 0.005788501 -0.022159912 0.0043547796
